fixmodel.pth (torch, 13906 bytes, 6 tensors)

net.0.weight f4 [64, 7]
0	0xbe1018d1	-0.14071967
1	0x3d1701e9	0.036867056
2	0x3ba9d873	0.0051832735
3	0xbdd1170a	-0.102094725
4	0xbe25c4b7	-0.16188322
5	0xbcb64bd5	-0.022252956
6	0x3c90c9f5	0.017674426
7	0x3e960198	0.2929809
8	0xbda907d2	-0.08253445
9	0x3e29acc7	0.16569816
10	0x3d658dc3	0.056043398
11	0xbe77e5c1	-0.24208738
12	0x3bb336b3	0.005469167
13	0xbe12cfbf	-0.14337061
14	0xbea3c71e	-0.31987852
15	0xbe734b29	-0.2375914
16	0x3b448bb5	0.0029990498
17	0xbe2b2f5d	-0.16717286
18	0x3e1f5ec1	0.1556349
19	0x3eb2d7c4	0.3493024
20	0x3e28c496	0.16481242
21	0xbe73cd17	-0.23808704
22	0xbd054b08	-0.03254226
23	0xbe894c9b	-0.26816258
24	0x3e729efb	0.23693459
25	0xbcbedef8	-0.02329968
26	0x3ca4f4de	0.020136293
27	0x3d5eb4c7	0.05437162
28	0xbe64528a	-0.22297111
29	0x3e1198f8	0.14218509
30	0xbeb92b9a	-0.36166078
31	0x3dbfc44d	0.09363613
32	0xbd166441	-0.036716703
33	0x3e2eecb4	0.17082483
34	0xbe140145	-0.1445361
35	0x3e63a1f9	0.22229756
36	0x3e68134d	0.22663613
37	0x3a27cef4	0.0006401383
38	0xbeadc843	-0.3394185
39	0x3d356be0	0.04429233
40	0xbe9383d8	-0.28811526
41	0xbe6cf1dc	-0.23139137
42	0x3e9df9b9	0.30854586
43	0xbc007469	-0.007840254
44	0xbe935fe2	-0.2878409
45	0xbdd29989	-0.10283191
46	0x3e1154b9	0.14192475
47	0x3d7bd45e	0.061481826
48	0x3c93bb34	0.018033601
49	0xbdad9fb7	-0.08477729
50	0x3e230a80	0.15921974
51	0x3c1b3afd	0.009474513
52	0x3e232a70	0.15934157
53	0xbe27381b	-0.16329996
54	0x3d5d27ac	0.053992912
55	0xbd8b14f5	-0.067911066
56	0x3e13656a	0.14394155
57	0xbe7aea57	-0.24503456
58	0xbe1e70ed	-0.15472765
59	0xbcae7c2b	-0.021299442
60	0x3e10e9d7	0.14151703
61	0xbe69a99f	-0.22818612
62	0xbde988d3	-0.1140305
63	0x3cff7c6d	0.03118726
64	0xbd97c40f	-0.07410442
65	0xbe8b9cc4	-0.2726804
66	0x3e326d23	0.17424445
67	0xbe2e13e9	-0.16999783
68	0xbe990903	-0.29889688
69	0x3dfbbb93	0.12291636
70	0xbe1a328b	-0.15058343
71	0x3e4c5fff	0.19958495
72	0xbc221d20	-0.009894639
73	0x3df60a8e	0.12013732
74	0x3e099ef4	0.13439542
75	0xbdbaef94	-0.09127727
76	0xbe910ac6	-0.28328532
77	0xbe1660b6	-0.1468533
78	0x3d1d2bb7	0.038371768
79	0xbc7461c5	-0.014915888
80	0xbc4c5bb4	-0.012473036
81	0xbeab2859	-0.3342922
82	0xbd7a5bdb	-0.061122756
83	0x3e993746	0.29924983
84	0x3eaa1c40	0.33224678
85	0xbeb85d3f	-0.3600864
86	0x3e4945da	0.19655553
87	0xbeb57688	-0.35441995
88	0xbe56ff49	-0.20995821
89	0xbe533425	-0.2062536
90	0x3e83f0a2	0.25769526
91	0x3eabbd75	0.33542982
92	0x3e728d4c	0.23686713
93	0x3bc01a7a	0.0058625313
94	0xbe4888f7	-0.19583498
95	0x3d8217e1	0.06352211
96	0x3e12dc1c	0.14341778
97	0xbd192925	-0.037392754
98	0x3e1d19b0	0.1534183
99	0x3e018f9f	0.12652443
100	0xbebc75cc	-0.36808622
101	0x3d9727bc	0.073806256
102	0xbe89d97a	-0.26923734
103	0x3e7f44e7	0.24928628
104	0x3e3121ab	0.17298
105	0xbe93a247	-0.28834745
106	0x3eaa4231	0.33253625
107	0xbdf89898	-0.1213848
108	0x3e631056	0.221742
109	0x3d2805b5	0.041021068
110	0xbdc737e0	-0.09727454
111	0xbec42e24	-0.38316453
112	0xbde19c67	-0.110161595
113	0xbea997ae	-0.33123535
114	0x3e69fc8c	0.22850245
115	0xbe0dbf38	-0.13842475
116	0x3e3e437c	0.18580431
117	0x3d34b870	0.044121206
118	0x3e8a3b71	0.26998475
119	0xbda2d0cd	-0.07949982
120	0x3e12d9cd	0.14340897
121	0x3e89f16b	0.26942
122	0xbc2f319a	-0.010692978
123	0xbeb91970	-0.3615222
124	0xbcfd027a	-0.03088497
125	0xbe9344a9	-0.2876332
126	0xbe8f8b84	-0.2803613
127	0xbe6463eb	-0.2230374
128	0x3e8cd2ce	0.2750458
129	0xbe98e908	-0.2986529
130	0x3e9ab558	0.3021648
131	0x3e30573d	0.17220779
132	0x3e6f1a20	0.2334981
133	0x3e425018	0.18975866
134	0x3e9561d2	0.29176193
135	0xbe75acc0	-0.2399168
136	0x3e9ebfd4	0.31005728
137	0xbdc8a610	-0.09797299
138	0x3e566ed3	0.20940714
139	0xbe8fe94b	-0.28107676
140	0xbea3dbe1	-0.32003692
141	0x3e9b6141	0.30347636
142	0xbeadb6c9	-0.33928517
143	0x3d5a2be4	0.053264514
144	0x3e4af37b	0.19819443
145	0xbe81e06b	-0.2536653
146	0xbe06a553	-0.13149004
147	0xbe8eaf5d	-0.27868167
148	0xbe2df4d2	-0.16987923
149	0xbe16355b	-0.14668791
150	0x3e8befb1	0.27331308
151	0xbe4d35b3	-0.20040016
152	0xbe956c0d	-0.29184
153	0xbdde6227	-0.10858565
154	0xbe8b935f	-0.27260873
155	0x3e14ed39	0.14543618
156	0x3ead6d0c	0.3387226
157	0xbe840a02	-0.25788885
158	0xbdd89bac	-0.10576567
159	0x3e90572a	0.281915
160	0xbe93a910	-0.28839922
161	0xbd80f7dc	-0.062972754
162	0xbc894cd4	-0.016760267
163	0xbe1279e9	-0.14304318
164	0x3de6b720	0.11265397
165	0x3dd8cb05	0.10585598
166	0x3ddbac11	0.107261784
167	0x3dd38443	0.10327961
168	0x3d792b87	0.060832527
169	0xbe10fc0d	-0.1415865
170	0xbe3ce13b	-0.18445294
171	0x3ded2e37	0.115810804
172	0x3d3fb118	0.04679975
173	0xbe4f0c84	-0.20219618
174	0xbe9c91f0	-0.3058009
175	0xbe0840eb	-0.13306014
176	0x3e60f819	0.21969642
177	0x3e80d782	0.2516442
178	0xbe8439f4	-0.25825465
179	0xbe5d2b49	-0.21598543
180	0x3e1fe9a5	0.15616472
181	0xbe9157ea	-0.28387386
182	0x3ec81d25	0.39084736
183	0x3e25c1a2	0.16187146
184	0xbe8527b6	-0.2600686
185	0x3e847d12	0.2587667
186	0x3d90abbb	0.07064005
187	0xbea50ef6	-0.32237977
188	0x3eb806ba	0.35942632
189	0xbe43a919	-0.19107474
190	0x3e98931d	0.2979974
191	0xbe4f69f9	-0.20255269
192	0x3d771a4d	0.060327817
193	0x3d7d48c0	0.061836958
194	0x3e04346e	0.12910625
195	0x3e95844d	0.292025
196	0x3e852488	0.26004434
197	0x3e07b9d5	0.13254483
198	0xbe3c307e	-0.18377873
199	0x3e93b52a	0.28849155
200	0xbe5f8d15	-0.21831162
201	0x3e902260	0.28151226
202	0x3e6c04a8	0.23048651
203	0xbe1876a1	-0.14889003
204	0x3da3122b	0.0796245
205	0xbe396d8d	-0.18108197
206	0xbe7e6487	-0.24843036
207	0x3e1e7186	0.15472993
208	0xbe83db33	-0.25753173
209	0xbdd0eef9	-0.102018304
210	0x3e319a0e	0.17343923
211	0xbe8f829e	-0.2802934
212	0xbe3567c0	-0.17715359
213	0x3e6dfad3	0.23240213
214	0xbea3c2f2	-0.3198467
215	0x3e055a48	0.13022721
216	0x3e3329cc	0.17496413
217	0xbe9b005a	-0.30273706
218	0x3e8ec665	0.27885738
219	0x3e703746	0.23458585
220	0x3e314b76	0.17313942
221	0xbec30684	-0.3809091
222	0xbe44983f	-0.19198702
223	0xbe99b070	-0.30017424
224	0x3dadb497	0.084817104
225	0xbea3a6bb	-0.31963143
226	0xbe8bdb62	-0.27315813
227	0x3b3f8a2b	0.0029226642
228	0xbe56c437	-0.20973288
229	0x3e9cab56	0.3059947
230	0xbe9e4288	-0.30910134
231	0xbc427868	-0.011869527
232	0xbe20abd0	-0.15690541
233	0x3e7e87fb	0.2485656
234	0xbeb00d19	-0.34384993
235	0xbdd1737d	-0.10227106
236	0x3e86a3db	0.26296887
237	0xbe2a337a	-0.16621199
238	0xbaca8616	-0.0015451338
239	0x3e2de9dd	0.16983743
240	0xbe0c28fa	-0.13687506
241	0x3c7a769a	0.015287066
242	0x3e826541	0.25467876
243	0x3e18ddcb	0.14928357
244	0x3e166a3b	0.14688961
245	0xbd1ef9f3	-0.03881259
246	0xbe872ed6	-0.2640292
247	0x3e76b3d3	0.24092035
248	0xbe1aa172	-0.15100649
249	0xbe9eeeb7	-0.310415
250	0xbe143268	-0.14472353
251	0x3e22c9fb	0.15897362
252	0xbe15735d	-0.14594789
253	0xbe35f96f	-0.17770933
254	0xbd45a7c0	-0.048255682
255	0xbc846049	-0.016159194

net.0.bias f4 [64]
0	0x3d8e0dba	0.06936212
1	0x3d01af4e	0.031661324
2	0xbde53f73	-0.111937426
3	0xbe9d23fa	-0.3069151
4	0x3eb828c0	0.3596859
5	0xbe5da3a5	-0.21644457
6	0x3e8dbc69	0.27682808
7	0x3e26a058	0.16272104
8	0x3c8644a0	0.016390145
9	0x3e9b796c	0.30366075
10	0x3e9e1b1d	0.3088006
11	0x3d984ddb	0.07436725
12	0x3e7c3fbd	0.24633689
13	0x3e3f845a	0.18702832
14	0x3e937c65	0.28805843
15	0x3df54b5f	0.119772665
16	0x3ca9b652	0.02071682
17	0x3e7907a5	0.24319322
18	0xbd873bc6	-0.06603198
19	0x3da291f1	0.07937992
20	0x3dff04d6	0.12452094
21	0x3e40c7a2	0.18826154
22	0x3e122903	0.14273457
23	0xbda57ad2	-0.08080067
24	0xbd67c5aa	-0.05658499
25	0x3de5bad1	0.11217273
26	0xbe943e97	-0.28954002
27	0xbe686097	-0.22693096
28	0x3cdfe625	0.027331421
29	0x3e5506de	0.20803401
30	0x3e736081	0.23767282
31	0x3dae8ebd	0.08523319
32	0xbd7eb437	-0.062183585
33	0xbe8f74ad	-0.28018704
34	0xbe1e16c1	-0.15438367
35	0x3e58643f	0.21131991
36	0xbeb8b14d	-0.3607277
37	0xbe78f0da	-0.24310628
38	0x3e8f5f9a	0.28002626
39	0xbe3efd96	-0.18651423
40	0x3e13595e	0.1438956
41	0xbe9dbb21	-0.3080683
42	0x3e1f17f2	0.15536478
43	0x3e128263	0.14307551
44	0x3e238e4a	0.15972248
45	0x3e499448	0.19685471
46	0x3ea017c6	0.31268138
47	0xbde1f4a7	-0.11032992
48	0xbe9cad56	-0.30600995
49	0xbe8285cb	-0.254927
50	0x3e919630	0.28434896
51	0xbeaccbc3	-0.33749208
52	0xbe95bb78	-0.2924459
53	0x3e31bdfb	0.17357628
54	0xbe8ae126	-0.271249
55	0x3d98dc39	0.07463879
56	0xbe4c1075	-0.19928153
57	0x3e0cc97e	0.13748738
58	0xbe8f8672	-0.2803226
59	0x3d99414c	0.074831575
60	0xbe144ded	-0.14482851
61	0xbe5633e3	-0.2091823
62	0xbe1ec885	-0.1550618
63	0x3e2d8a90	0.16947389

net.2.weight f4 [32, 64]
0	0x3d90549f	0.0704739
1	0x3d498950	0.049203217
2	0x3b836d9c	0.004010869
3	0xbd0c9ec3	-0.034331094
4	0xbb08a1a8	-0.0020848308
5	0x3ce48c7f	0.027899025
6	0x3ce7984a	0.02827086
7	0x3c9e3e99	0.019316958
8	0xbcb8cd0e	-0.022558715
9	0xbca59615	-0.020213166
10	0xbdbe4dae	-0.0929216
11	0xbca34c37	-0.019933803
12	0xbd5ee6c3	-0.05441929
13	0xbbe81627	-0.007082719
14	0x3da75acd	0.08171616
15	0xbcb96903	-0.022633081
16	0x3d8ec6a8	0.069714844
17	0xbd042eef	-0.032271322
18	0x3dfc06fc	0.1230602
19	0xbd474aa9	-0.048655186
20	0xbdcba92d	-0.09944377
21	0xbd66b1ce	-0.05632191
22	0xbdda7f4c	-0.10668811
23	0xbe04cbf0	-0.12968421
24	0x3d31cc6f	0.043407854
25	0xbdc5efd2	-0.09664883
26	0x3c266f3c	0.010158356
27	0x3e2485c4	0.16066653
28	0x3d83caef	0.06435191
29	0x3e041186	0.1289731
30	0xbd831dc8	-0.06402165
31	0xbe2d642a	-0.16932741
32	0x3c84fdad	0.016234243
33	0x3d3fd5fc	0.04683493
34	0xbd011e04	-0.031522766
35	0xbe03246f	-0.12806867
36	0xbc085218	-0.008320354
37	0x3d478b4a	0.04871682
38	0xbda16ce1	-0.07882095
39	0xbd0d62d7	-0.03451809
40	0x3d8b27e4	0.06794718
41	0x3df1b9a9	0.1180299
42	0xbd8f226d	-0.06988988
43	0xbcc8a797	-0.024493976
44	0xbd6a5373	-0.05720849
45	0x3dafc89a	0.085831836
46	0xbdea2aee	-0.114339694
47	0x3d6b5d11	0.057461802
48	0xbd081f10	-0.03323275
49	0xbd620eec	-0.05519001
50	0xbe0894dc	-0.13338035
51	0xbc024054	-0.007949907
52	0x3ddce0c4	0.10785058
53	0x3da60e05	0.08108143
54	0x3dc4e9c3	0.09614899
55	0x3d87edd1	0.06637157
56	0x3b4a38bd	0.0030856573
57	0x3c85214e	0.016251232
58	0xbda93550	-0.08262122
59	0xbda532de	-0.08066343
60	0xbc7827e4	-0.015146229
61	0xbcca029d	-0.02465945
62	0x3c88758a	0.01665761
63	0xbd829d00	-0.063776016
64	0xbd6ff0dc	-0.05857931
65	0x3ccb543e	0.024820443
66	0xbd05ce1e	-0.03266727
67	0xbbef5ad5	-0.007304529
68	0x3d6b405b	0.05743442
69	0x3c20a004	0.009803776
70	0x3dac9b45	0.08428053
71	0x3dc575a4	0.09641579
72	0x3dc65f6e	0.096861705
73	0x3c6d4839	0.014482551
74	0x3e0c5856	0.13705572
75	0xbda39e9c	-0.07989237
76	0xbd5d9242	-0.05409456
77	0x3cb33e9c	0.02188044
78	0xbc893b3d	-0.01675188
79	0x3ddc12cc	0.10745773
80	0x3c1c2add	0.009531704
81	0xbd066fcb	-0.032821458
82	0xbd2d324a	-0.042284288
83	0xbb1cdae8	-0.002393419
84	0x3db73e8b	0.08947476
85	0xbe19da24	-0.1502462
86	0x3dde5fea	0.10858138
87	0xbd461c0d	-0.048366595
88	0x3d5f753c	0.054555163
89	0x3cdc4b09	0.026891248
90	0xbbc44f75	-0.0059909173
91	0x3d0fdac6	0.035120748
92	0x3d8b9493	0.06815448
93	0xbdd84808	-0.10560614
94	0xbd382c2e	-0.044964008
95	0x3de937f5	0.11387626
96	0x3da3638e	0.07977973
97	0x3da922a6	0.08258562
98	0x3d79348a	0.06084112
99	0xbb862318	-0.004093539
100	0xbdea05ab	-0.11426862
101	0x3d5eaa6c	0.054361746
102	0x3b2349ff	0.0024915931
103	0x3d4ac157	0.04950079
104	0xbd0e9307	-0.034808185
105	0x3d8a66cc	0.06757888
106	0xbd89e4c9	-0.067330904
107	0xbdc11556	-0.09427898
108	0xbcdb2035	-0.026748756
109	0xbdac0626	-0.0839961
110	0x3cdccf44	0.0269543
111	0xbbfcfc8a	-0.0077205347
112	0x3d151667	0.036398318
113	0xbe1211d6	-0.14264616
114	0xbd040fb2	-0.03224153
115	0x3d57a110	0.052643836
116	0x3b6caff5	0.003611562
117	0xbd9ee228	-0.0775798
118	0x3dd59c26	0.104301736
119	0xbc74abe1	-0.014933557
120	0x3b851158	0.0040609054
121	0xbdb782e1	-0.0896051
122	0x3dd14c85	0.10219673
123	0x3da3a59b	0.07990571
124	0x3e01f1e4	0.1268993
125	0x3ca1ea3b	0.01976501
126	0xbc4e29a7	-0.012583173
127	0x3d0802c8	0.033205777
128	0x3e07c55c	0.1325888
129	0xbd60fe7b	-0.05493019
130	0xba2bb630	-0.00065502804
131	0xbcb4f65f	-0.022090135
132	0xbb11db0b	-0.0022255804
133	0x3cc807f2	0.024417851
134	0xbe0de971	-0.13858582
135	0x3c9b997e	0.01899409
136	0xbdbe41fd	-0.0928993
137	0xbd20779e	-0.039176576
138	0xbbb33c05	-0.0054698014
139	0xbdb798ab	-0.08964666
140	0xbdb0e31f	-0.0863707
141	0x3d0eda19	0.034875963
142	0xbd756646	-0.05991199
143	0xbe01ae72	-0.12664202
144	0xbde1ab65	-0.11019019
145	0xbdf2dc54	-0.118584305
146	0xbbe7e634	-0.007077003
147	0x3d6f7380	0.05845976
148	0xbd590bca	-0.05298976
149	0xbdb79dea	-0.089656666
150	0xbe251b83	-0.16123776
151	0x3cc5a833	0.024128055
152	0xbd170427	-0.036869194
153	0x3d1d802c	0.038452312
154	0x3d6dd2de	0.058062427
155	0x3d96c14b	0.073610865
156	0xbbc10d24	-0.005891459
157	0x3cde8921	0.027164998
158	0x3db0d1a2	0.08633734
159	0xbdda8857	-0.10670536
160	0x3ca217d4	0.019786753
161	0x3ccd9060	0.025093257
162	0x3cce79c2	0.025204543
163	0xbd88b12f	-0.0667442
164	0x3d107bd8	0.035274357
165	0xbda206c0	-0.07911444
166	0xbdda95f1	-0.1067313
167	0x3d5e8ab5	0.0543315
168	0xbd8753fe	-0.06607817
169	0x3af0ffaa	0.0018386741
170	0x3cbfb4d7	0.02340166
171	0x3d3a9ad7	0.045557823
172	0x3d9db10c	0.07699785
173	0x3cceb2f6	0.02523182
174	0xbd97f639	-0.0742001
175	0xbcec6fde	-0.028861936
176	0x3ca533b3	0.020166254
177	0x3e1fe8c6	0.1561614
178	0x3d5ef574	0.0544333
179	0x3dc23e7c	0.09484574
180	0x3dcc29df	0.09968924
181	0x3cd2cc90	0.025732309
182	0xbdf982dc	-0.121831626
183	0xbd7f2ff3	-0.062301587
184	0x3d2fc2b7	0.042910304
185	0x3d51af3c	0.051192507
186	0xbda5720c	-0.08078393
187	0xbd711700	-0.058859825
188	0x3cf81641	0.030284049
189	0xbe14e5fe	-0.1454086
190	0xbcc0971c	-0.023509555
191	0x3d4f9872	0.050682493
192	0x3d5a08aa	0.05323092
193	0x3d9ae00e	0.07562266
194	0xbcd6bce5	-0.026213119
195	0xbd791c03	-0.06081773
196	0x3d5ac5fb	0.053411465
197	0xbad8a3b5	-0.0016528281
198	0x3dea6928	0.11445838
199	0x3dd8e422	0.10590388
200	0x3d669d1b	0.05630217
201	0xbd10db61	-0.035365466
202	0xbcc688f2	-0.024235222
203	0x3d837f86	0.064208075
204	0xbd97c39b	-0.07410356
205	0xbd774823	-0.06037153
206	0x3df264c6	0.11835627
207	0x3db636a5	0.08897141
208	0x3e06af1d	0.13152738
209	0xbd28a51d	-0.04117309
210	0xbe0c24ba	-0.13685885
211	0xbd90c124	-0.07068089
212	0xbd4dc759	-0.05023894
213	0xbda04f1f	-0.07827591
214	0x3ac4e40e	0.0015021579
215	0xbb467a51	-0.0030285309
216	0x3d1f563d	0.038900603
217	0x3d8c6d6d	0.06856809
218	0xbe0f0f96	-0.1397079
219	0xbe02b7c3	-0.12765412
220	0xbba79daa	-0.0051152306
221	0x3c9db621	0.019251885
222	0x3ce64a5e	0.028111633
223	0xbb95bfae	-0.004569969
224	0x3cc9b32f	0.024621574
225	0x3d6aadb3	0.05729456
226	0x3d5137f4	0.05107875
227	0x3bfe00e2	0.00775157
228	0x3cc66252	0.024216805
229	0xbcdbb999	-0.026821898
230	0x3de756c9	0.1129585
231	0x3d63a36d	0.055575777
232	0x3dca2c12	0.09871687
233	0xbc22c52c	-0.009934705
234	0xbce61133	-0.028084373
235	0xbdeb55d3	-0.11490979
236	0xbc0248ad	-0.007951898
237	0x3db2633c	0.08710334
238	0xbd83664d	-0.06415997
239	0xbb2a6244	-0.0025998512
240	0xbc943034	-0.018089391
241	0x3d489b13	0.048976015
242	0x3e092a60	0.13395071
243	0x3d09629e	0.033541314
244	0x3ca19bbf	0.019727586
245	0x3d91d0ea	0.07119925
246	0xbd3e0dd6	-0.046399914
247	0x3ce5422b	0.027985653
248	0x3d7fb954	0.062432602
249	0x3d020db5	0.031751353
250	0xbd0bb7f6	-0.034110986
251	0x3ccd4799	0.025058554
252	0xbd8e5a51	-0.0695082
253	0xbda8f9be	-0.082507595
254	0x3d1b7d54	0.03796132
255	0xbd38eab6	-0.045145713

net.2.bias f4 [32]
0	0x3c7218dd	0.014776436
1	0x3d5c3115	0.053757746
2	0x3d09fdfa	0.033689477
3	0xbc25f8c3	-0.01013011
4	0xbe01413a	-0.12622538
5	0xbdb161cb	-0.08661231
6	0x3d82dd2d	0.06389842
7	0xbd87d9ac	-0.066333145
8	0x3ca7713e	0.02043974
9	0x3d46a521	0.048497323
10	0x3da09083	0.078400634
11	0x3c4c0473	0.012452233
12	0xbe058900	-0.13040543
13	0xbd492390	-0.04910618
14	0x385b78ee	5.2326293e-05
15	0xbb711054	-0.0036783414
16	0x3de6771b	0.11253186
17	0xbcf775f4	-0.030207612
18	0xbd4f1169	-0.050553713
19	0xbd739f69	-0.059478197
20	0x3c64e9e3	0.013971779
21	0xbd9bfba1	-0.07616354
22	0xbd2dd7bd	-0.042442072
23	0xbd902c8b	-0.07039746
24	0xbd1e2b35	-0.038615424
25	0xbd48fd01	-0.04906941
26	0xbc4b1e33	-0.012397337
27	0xbd88e6ee	-0.06684671
28	0xbdaee29c	-0.08539316
29	0x3dc6983a	0.09697004
30	0x3d355442	0.044269808
31	0xbd0f07b4	-0.034919456

net.4.weight f4 [7, 32]
0	0x3df1c0ad	0.11804328
1	0x3c62c3e7	0.013840652
2	0xbdd25b24	-0.1027129
3	0x3e1ff536	0.15620884
4	0x3d831fd0	0.06402552
5	0xbdbafaec	-0.09129891
6	0x3d32dca5	0.043667454
7	0x3e13ea03	0.14444737
8	0x3e0ebbfd	0.139389
9	0xbdb0e6d6	-0.086377785
10	0x3def14da	0.11673899
11	0xbd711249	-0.05885533
12	0x3d887153	0.0666224
13	0xbd440da1	-0.04786456
14	0xbe1edcf6	-0.15513977
15	0xbd76c761	-0.060248736
16	0x3d03a098	0.032135576
17	0x3d9637aa	0.07334836
18	0xbcf592a6	-0.029977154
19	0x3de537f2	0.11192311
20	0xbda93c75	-0.082634844
21	0x3e05aac1	0.13053419
22	0xbd32770f	-0.043570574
23	0xbe23cd2d	-0.15996237
24	0x3d8f2b6e	0.069907054
25	0x3d441576	0.04787203
26	0xbddc805d	-0.10766671
27	0x3d2b2ed8	0.04179272
28	0x3d941acd	0.07231674
29	0xbd955a36	-0.07292597
30	0xbdd50b94	-0.10402599
31	0xbd4ad736	-0.049521647
32	0xbe2461b4	-0.16052896
33	0x3e418e3b	0.18901913
34	0x3dd21171	0.10257233
35	0xbccc4573	-0.02493546
36	0xbdb3f471	-0.08786858
37	0xbbb82582	-0.0056197057
38	0xbd5e9590	-0.054341853
39	0xbd2a0951	-0.04151279
40	0x3e28f51b	0.1649975
41	0xbe0c4b6d	-0.13700648
42	0xbde2f6d3	-0.11082234
43	0x3a2eb1e7	0.0006664083
44	0x3e1563f9	0.14588918
45	0xb97cd26e	-0.00024110984
46	0xbe2dd0d4	-0.16974193
47	0x3d8f2877	0.0699014
48	0x3e035a0e	0.12827322
49	0x3d87d1ef	0.066318385
50	0x3e0632fc	0.13105386
51	0xbb9bcd26	-0.00475468
52	0x3d19f2ab	0.03758494
53	0xbc72e9bb	-0.0148262335
54	0xbca5e24b	-0.020249506
55	0x3e093a9a	0.13401261
56	0xbd6233c4	-0.05522515
57	0xbdbb79a7	-0.09154063
58	0xbd675e91	-0.05648667
59	0xbda77419	-0.08176441
60	0xbd762da8	-0.060102135
61	0x3c271531	0.0101979235
62	0x3d3bb7c4	0.04582955
63	0xbe0a4e6b	-0.13506477
64	0x3de2f003	0.11080935
65	0x3bdfd3c2	0.0068306634
66	0xbcf0aae2	-0.029378358
67	0x3d78e7b8	0.06076786
68	0x3d540f85	0.051772613
69	0x3d334c7f	0.043774124
70	0xbd4a25c6	-0.04935243
71	0xbd7b66db	-0.061377387
72	0x3ca67fae	0.020324554
73	0xbda4c575	-0.080454744
74	0x3dd9044b	0.10596522
75	0x3dd13a99	0.10216255
76	0x3d876f20	0.06612992
77	0x3cf0f483	0.029413467
78	0xbc06fe17	-0.008239291
79	0x3db89b1c	0.0901396
80	0xbc637dd2	-0.013884978
81	0xbda03b3f	-0.078238
82	0x3d9864dc	0.074411124
83	0x3d6be1cc	0.057588384
84	0x3d3acf81	0.045608047
85	0x3db8a9b4	0.09016743
86	0x3e0d0b05	0.13773735
87	0x3c5b006f	0.013366803
88	0x3e308a65	0.17240293
89	0x3db0a4be	0.08625172
90	0x3d70b3b0	0.058765113
91	0x3d2be675	0.041967828
92	0x3c17ccb7	0.009265116
93	0xbe197416	-0.1498569
94	0xbca2e3e6	-0.019884061
95	0x3e068346	0.13136014
96	0xbdd8cfc7	-0.105865054
97	0x3de85565	0.11344413
98	0x3e561c11	0.20909144
99	0xbca39db9	-0.019972669
100	0x3daed5f4	0.08536902
101	0xbdd89b86	-0.10576539
102	0x3e00bcf6	0.12572083
103	0xbe055ba2	-0.13023236
104	0x3d0e5664	0.034750357
105	0x3df69d93	0.12041774
106	0xbcc7bd25	-0.024382183
107	0x3c9d063a	0.019168008
108	0xbcfab180	-0.030602217
109	0xbe2d5b9c	-0.16929477
110	0x3dd2a953	0.10286202
111	0x3d8ac7dc	0.067764014
112	0x3d52aaba	0.05143235
113	0xbdb9e049	-0.09075982
114	0xbe0508b0	-0.12991595
115	0xbe21f01d	-0.15814252
116	0xbd23546f	-0.039875444
117	0x3d84f945	0.06492857
118	0x3d1cea5f	0.03830945
119	0xba8d471f	-0.0010778642
120	0x3d880b61	0.06642795
121	0xbe258b1c	-0.16166347
122	0x3dd08731	0.10182036
123	0x3cef02a8	0.029176071
124	0xbe2d6db9	-0.16936387
125	0x3e6642a7	0.22486363
126	0xbe2ab0d1	-0.16669013
127	0x3cbdf6db	0.023188999
128	0x3d910652	0.07081284
129	0x3d4e8ba2	0.050426133
130	0xbca0e272	-0.019639228
131	0xbe4c435a	-0.19947568
132	0x3cbdc545	0.023165355
133	0xbd3d0c11	-0.046154086
134	0xbd9a797a	-0.07542701
135	0x3d9b8981	0.07594586
136	0x3dc4617e	0.09588908
137	0xbddffda1	-0.10937048
138	0x3d8f5906	0.06999402
139	0x3d04e495	0.032444555
140	0xbd922d97	-0.07137602
141	0x3db9e41e	0.09076713
142	0x3dcc2799	0.0996849
143	0xbdcc5af6	-0.09978287
144	0x3d63dbe4	0.055629626
145	0xbd26e267	-0.040743258
146	0xbc68c6cf	-0.014207556
147	0xbdc8aba8	-0.09798366
148	0xbe5cb6a4	-0.21554047
149	0x3dd2615f	0.10272478
150	0xbcaffcf2	-0.021482918
151	0xbe015397	-0.12629543
152	0x3ced187d	0.028942341
153	0x3c2a33a1	0.010388286
154	0xbe0c3d12	-0.13695171
155	0x3e06eca4	0.13176209
156	0x3d3154bb	0.043293696
157	0x3e69db41	0.22837545
158	0xbe2bbde3	-0.16771655
159	0x3db7981e	0.08964561
160	0x3db775b2	0.089579955
161	0x3ab327d9	0.0013668492
162	0x3dae6ea9	0.085172005
163	0x3da7d34b	0.08194598
164	0xbdf8a74c	-0.12141284
165	0xbdea5be9	-0.11443312
166	0x3c351865	0.011053179
167	0xbccfb458	-0.02535455
168	0x3e0d8f80	0.13824272
169	0xbd8f7f67	-0.07006722
170	0xbd3d2772	-0.046180196
171	0xbe3c9d65	-0.18419416
172	0x3e19fb38	0.15037239
173	0xbbb10098	-0.005401682
174	0x3d57437a	0.052554585
175	0x3e16625c	0.14685959
176	0xbd8f9e6f	-0.07012641
177	0x3d4debdf	0.050273772
178	0xbd270c51	-0.04078323
179	0x3d922b1c	0.07137129
180	0xbc3dae92	-0.011577265
181	0x3e11f157	0.1425222
182	0xbe05876a	-0.13039938
183	0x3dc369cb	0.09541663
184	0x3d8c16a1	0.068402536
185	0xbd49abfb	-0.04923628
186	0x3d823dd8	0.06359452
187	0xbd8557a6	-0.06510858
188	0x3e23c6fe	0.15993878
189	0x3daaba97	0.083363704
190	0xbe3ddf46	-0.18542203
191	0x3e016990	0.12637925
192	0x3c707944	0.0146773495
193	0x3c441541	0.011967958
194	0xbcfbb5ab	-0.030726274
195	0x3dd65a46	0.10466437
196	0xbdbfa570	-0.093577266
197	0xbc8be549	-0.017077105
198	0xbdd0b9a3	-0.101916574
199	0xbdf62891	-0.12019456
200	0x3d230843	0.0398028
201	0x3cce109e	0.025154408
202	0xbd5d8600	-0.05408287
203	0x3ddb4b37	0.107077055
204	0xbc4d83bf	-0.012543618
205	0xbca89515	-0.0205789
206	0xbdbf09fb	-0.093280755
207	0x3d5b3f15	0.053526957
208	0x3de2a28e	0.11066161
209	0xbdf3d838	-0.11906475
210	0xbdae760d	-0.0851861
211	0x3d87c301	0.06628991
212	0x3dcff5ce	0.101543054
213	0x3d5f9e22	0.054594167
214	0x3d452bf7	0.04813763
215	0xbe1554a4	-0.14583069
216	0x3d307b91	0.043086592
217	0x3c35b405	0.011090283
218	0x3d9574c9	0.072976656
219	0xbd624447	-0.055240896
220	0x3df3e542	0.11908962
221	0xbdb98044	-0.09057668
222	0x3c345d93	0.011008638
223	0x3d7c8259	0.061647747

net.4.bias f4 [7]
0	0x3e11f09d	0.14251943
1	0xbd636c58	-0.055523247
2	0xbd95e53b	-0.07319113
3	0xbdb5c9a2	-0.08876349
4	0xbd6220d4	-0.05520709
5	0xbd8c096f	-0.06837737
6	0xbd55b5e7	-0.05217543
