model.pth (torch, 13143 bytes, 6 tensors)

net.0.weight f4 [64, 7]
-0.20211382 -0.20915543 0.23215574 -0.2952645 0.11389131 0.19782627 0.046934377 -0.35082117
0.024742696 0.09917051 -0.28739208 0.24820124 -0.17693876 -0.30124652 0.14818023 -0.3351432
-0.23364256 -0.33271867 0.12542556 0.07197546 -0.12490597 -0.21698889 0.02984647 0.24226242
0.20977621 0.2178352 -0.018283678 -0.030262096 0.05591859 -0.11840526 0.08050839 -0.32965168
0.22053348 -0.10623081 -0.082197346 -0.063860394 0.24064578 0.231174 0.064195506 0.059785716
-0.0038934664 0.26412174 0.02653454 0.3107466 -0.19498704 0.13203217 -0.18491997 -0.27525538
0.3301483 0.33611503 -0.15588613 -0.12531444 0.3310206 0.1499518 -0.1403494 -0.32804003
-0.35702294 0.2953418 -0.33144036 -0.30227083 0.18539126 -0.043528862 0.29859784 0.046518214
-0.26313478 -0.31781587 0.020897744 0.16619837 -0.03697088 0.28641564 -0.35697934 0.20731468
-0.11659835 0.31068417 0.23107682 0.20136903 0.07161516 -0.2905989 -0.30652946 0.0992325
-0.010818716 0.12160565 0.091350615 -0.37089145 0.038672615 0.29231426 0.29637212 0.29550648
-0.07622176 -0.07931556 -0.32263905 -0.22501974 -0.036156114 0.0920349 -0.035755612 0.20100765
-0.22019103 0.21615721 0.105457954 -0.1575004 0.17019424 0.025003789 0.2261952 -0.34677464
0.22060919 0.117001124 -0.17522609 -0.05569804 -0.31713957 -0.040458277 0.1605158 0.33762154
-0.10199499 -0.22249459 0.2960126 -0.19821416 0.20231627 0.36312547 0.21109203 0.1534459
0.047815368 0.2583237 -0.016878612 0.15638496 -0.16182166 0.07227065 -0.071403295 0.07591007
0.36793724 0.036696237 0.08741079 -0.2621055 0.16570878 0.34161204 -0.23115739 -0.25371778
-0.17464472 0.17389527 0.032306887 0.09060161 0.04092477 -0.06348898 -0.11518059 -0.13909285
-0.24432951 0.24799304 0.26617092 0.2963726 0.26950824 -0.10300362 0.27699128 0.044907227
-0.2620124 0.08303559 0.36320302 -0.28713426 0.11788295 -0.14508076 0.20162971 -0.05906324
0.14089727 0.15105821 -0.1981118 0.051699083 -0.22377515 -0.1408069 0.09398595 -0.25834978
-0.2949885 0.10137455 0.15603596 -0.32421294 0.23894243 0.12910444 -0.014899093 -0.30856955
-0.09852826 0.27721852 -0.21697457 0.1299305 -0.11472921 -0.1281668 0.2652005 -0.37942287
-0.060037564 -0.062224884 -0.22315595 0.097648144 -0.20004612 -0.028101347 0.13967921 -0.18957886
-0.22499941 -0.1903031 -0.05828571 -0.07458387 -0.21559238 0.17574649 -0.29677862 -0.021365525
-0.2110171 -0.013379652 -0.2938238 -0.20294465 -0.15165658 -0.27362913 -0.21690814 0.30435213
-0.18227069 -0.27154422 -0.03553494 -0.0036384996 0.25310537 0.20927754 0.23400772 -0.31882542
0.3758641 -0.2006882 -0.049010105 -0.10889544 -0.19228557 -0.116136305 -0.08757511 -0.20232876
0.18120137 -0.114778556 0.28467923 0.043635968 -0.14934608 -0.30651042 -0.17162919 0.18056147
0.26008457 -0.2659368 0.3581225 0.23383367 0.16197427 0.14594415 -0.09864503 -0.26930687
0.27985433 0.2476288 0.04444597 -0.21225207 -0.095337704 0.17707233 -0.1039384 0.3462305
-0.12686393 -0.10403867 0.28698814 -0.0732352 0.032044403 0.030442193 0.21638317 0.27768096
00000000: edf6 4ebe d72c 56be 3cba 6d3e e92c 97be
00000010: d93f e93d f892 4a3e 433e 403d d59e b3be
00000020: 32b1 ca3c e919 cb3d 0e25 93be 7728 7e3e
00000030: 6f2f 35be fc3c 9abe 8fbc 173e e497 abbe
00000040: ff3f 6fbe 1a5a aabe 8f6f 003e df67 933d
00000050: b4ce ffbd 5632 5ebe 9680 f43c a413 783e
00000060: 93cf 563e 3110 5f3e a7c7 95bc 37e8 f7bc
00000070: e40a 653d 757e f2bd 95e1 a43d 1bc8 a8be
00000080: 87d3 613e 8a8f d9bd 1557 a8bd 3dc9 82bd
00000090: d96b 763e e1b8 6c3e ef78 833d dee1 743d
000000a0: 8729 7fbb f73a 873e f75e d93c 2e1a 9f3e
000000b0: afaa 47be 7133 073e a95b 3dbe 46ee 8cbe
000000c0: 3309 a93e 4517 ac3e 9da0 1fbe 6e52 00be
000000d0: 887b a93e f78c 193e c1b7 0fbe ddf4 a7be
000000e0: b6cb b6be 0a37 973e 8db2 a9be 3ec3 9abe
000000f0: 35d7 3d3e 524b 32bd d1e1 983e e289 3e3d
00000100: 9ab9 86be c3b8 a2be bf31 ab3c e82f 2a3e
00000110: c76e 17bd 12a5 923e ffc5 b6be 4d4a 543e
00000120: 1ecb eebd ff11 9f3e 679f 6c3e af33 4e3e
00000130: f8aa 923d 61c9 94be 6ef1 9cbe 693a cb3d
00000140: fc40 31bc 620c f93d 0816 bb3d 7ce5 bdbe
00000150: 2d67 1e3d 37aa 953e 16be 973e a04c 973e
00000160: 271a 9cbd 3270 a2bd f230 a5be 936b 66be
00000170: 6f18 14bd cb7c bc3d 7a74 12bd f3d4 4d3e
00000180: c279 61be 5158 5d3e 57fa d73d c947 21be
00000190: 6647 2e3e bfd4 cc3c b79f 673e 728c b1be
000001a0: 60e7 613e 499e ef3d 786e 33be a123 64bd
000001b0: 1e60 a2be 94b7 25bd 415e 243e bbdc ac3e
000001c0: c0e2 d0bd 9fd5 63be f78e 973e a7f8 4abe
000001d0: ff2b 4f3e 95eb b93e 8228 583e ec20 1d3e
000001e0: 0cda 433d 0143 843e 0445 8abc 6123 203e
000001f0: 94b4 25be a202 943d e43b 92bd bd76 9b3d
00000200: 4562 bc3e cb4e 163d 6e04 b33d b132 86be
00000210: 90af 293e c6e7 ae3e 86b4 6cbe 4ce7 81be
00000220: 11d6 32be 9a11 323e 3a54 043d 568d b93d
00000230: bba0 273d 8306 82bd cde3 ebbd 5b6e 0ebe
00000240: 8431 7abe e3f1 7d3e 8e47 883e 26be 973e
00000250: fcfc 893e 90f3 d2bd cdd1 8d3e a4f0 373d
00000260: 7d26 86be 900e aa3d bff5 b93e 4303 93be
00000270: 9e6c f13d 0d90 14be 0578 4e3e 4cec 71bd
00000280: 6047 103e 01af 1a3e d2dd 4abe 6bc2 533d
00000290: 5025 65be af2f 10be b57b c03d 6c46 84be
000002a0: bc08 97be 769d cf3d e4c7 1f3e 3dff a5be
000002b0: 53ad 743e f433 043e 531b 74bc d4fc 9dbe
000002c0: 2fc9 c9bd 96ef 8d3e 952e 5ebe 800c 053e
000002d0: 26f7 eabd 283e 03be 5cc8 873e b743 c2be
000002e0: f3e9 75bd 85df 7ebd fe82 64be c0fb c73d
000002f0: e4d8 4cbe cc34 e6bc 1108 0f3e f620 42be
00000300: 3f66 66be d1de 42be ffbc 6ebd 6ebf 98bd
00000310: 40c4 5cbe e3f6 333e 5ef3 97be c106 afbc
00000320: de14 58be 5436 5bbc 1370 96be b9d0 4fbe
00000330: dd4b 1bbe 1e19 8cbe 2b1d 5ebe 0bd4 9b3e
00000340: 2ba5 3abe d807 8bbe 168d 11bd e573 6ebb
00000350: 0797 813e da4c 563e b89f 6f3e 163d a3be
00000360: 4271 c03e 3581 4dbe d2be 48bd 9304 dfbd
00000370: 82e6 44be dfd8 edbd 945a b3bd 452f 4fbe
00000380: da8c 393e 0511 ebbd 7ac1 913e a1bb 323d
00000390: 2eee 18be efee 9cbe 90bf 2fbe 1be5 383e
000003a0: ce29 853e de28 88be d55b b73e 1872 6f3e
000003b0: 95dc 253e 6272 153e 6806 cabd 97e2 89be
000003c0: 1149 8f3e 6792 7d3e fa0c 363d 9b58 59be
000003d0: 6a40 c3bd 7352 353e a8dd d4bd 2045 b13e
000003e0: 9ee8 01be 3a12 d5bd 1cf0 923e 56fc 95bd
000003f0: fe40 033d e861 f93c 8d93 5d3e 332c 8e3e

net.0.bias f4 [64]
-0.34138072 0.13094047 0.29150587 0.13798796 0.09224673 0.25183442 -0.31436062 -0.3806893
0.046796877 0.19371085 -0.11591246 0.13632706 0.22478956 -0.087057695 0.17545515 -0.03130101
0.26135898 -0.39319316 -0.2528155 -0.073806845 0.13625683 -0.034901887 -0.08394134 0.29446718
-0.06603795 -0.26986223 -0.3330689 0.25415012 -0.046881452 -0.35026297 -0.25312197 -0.14163575
-0.028445385 -0.16806732 0.0074094436 0.3275442 0.27056053 -0.28176636 0.064163424 0.0733154
-0.26530966 -0.06770367 0.16541311 0.18536374 0.37228912 0.097711086 0.05436301 -0.19715258
-0.23517393 0.053486448 0.15194733 0.096874215 0.07226596 0.24201654 -0.06712735 -0.11080887
-0.23997055 0.07118693 -0.2448015 -0.12869823 0.16542186 -0.18079214 -0.23278305 0.11785971
00000000: 74c9 aebe 4215 063e 4240 953e b74c 0d3e
00000010: dbeb bc3d 71f0 803e e0f3 a0be b5e9 c2be
00000020: 15ae 3f3d 235c 463e 8363 edbd 5299 0b3e
00000030: 3c2f 663e 4e4b b2bd 84aa 333e 7d35 00bd
00000040: d8d0 853e 9d50 c9be 0971 81be 0b28 97bd
00000050: e986 0b3e 48f5 0ebd 70e9 abbd 67c4 963e
00000060: e83e 87bd 622b 8abe 0288 aabe f71f 823e
00000070: c406 40bd ab55 b3be 3499 81be f608 11be
00000080: 4c06 e9bc d719 2cbe ebca f23b e0b3 a73e
00000090: e986 8a3e ae43 90be 1d68 833d 6226 963d
000000a0: abd6 87be 39a8 8abd 0e62 293e fecf 3d3e
000000b0: ae9c be3e c01c c83d bfab 5e3d 5ee2 49be
000000c0: 6fd1 70be 9b14 5b3d 1598 1b3e fd65 c63d
000000d0: 2d00 943d 2fd3 773e 107a 89bd c3ef e2bd
000000e0: d7ba 75be 74ca 913d 3fad 7abe 78c9 03be
000000f0: 5964 293e 9321 39be ae5e 6ebe 6e60 f13d

net.2.weight f4 [32, 64]
0.069978915 -0.040591273 -0.008494218 -0.09452083 -0.06588162 -0.022302598 0.08399648 0.043511458
0.06079722 0.002907008 0.049527444 0.046706963 0.032463163 -0.058829416 -0.14928925 0.044920992
-0.15324883 0.0062424988 0.134458 0.036282904 0.078699954 0.0012137308 -0.029696867 -0.12012768
0.02895727 0.013175025 0.031673558 0.01688583 0.110552505 0.039345786 -0.044225276 -0.031952266
0.04417498 -0.12597865 0.07910098 0.0743287 -0.088316776 -0.080386266 0.09596236 0.07457403
0.058153 0.10620706 -0.13482389 -0.030835753 0.08594752 -0.011206197 0.035936974 0.10639287
0.010827643 -0.06640512 -0.12501268 0.0054974947 -0.02381739 0.13109758 0.036991604 -0.042739596
0.13428733 0.045459393 -0.021110406 -0.12511791 0.075400464 0.017607123 -0.032093227 0.015397173
0.055950593 0.05835813 0.00940291 0.09307602 -0.06287084 -0.050113894 0.13077146 0.068917714
0.0016960764 -0.15220451 -0.060153596 0.04257768 0.08148963 0.08271537 -0.06534333 0.034823008
-0.100688145 -0.0013991316 -0.09695621 -0.028174547 0.05072948 0.091576576 0.062262043 -0.12375754
-0.071383536 -0.07927097 0.053813316 0.023977973 0.08609901 -0.037717838 -0.02369679 0.09946999
0.036409833 0.0644925 0.09897072 -0.13469061 0.018602964 0.10554949 0.07439761 0.027722508
-0.04624296 -0.024787277 0.056078773 -0.120958 0.101947926 -0.11381226 0.10324639 0.05396709
0.029982181 -0.06553085 -0.014357093 -0.072620116 -0.12075426 -0.11411635 0.06514665 0.12327957
-0.011199429 0.06788221 0.07280527 -0.0005762818 0.077141 -0.045834243 0.019732738 0.09855454
0.026140697 0.0027520128 -0.029886028 0.07588169 -0.051119 -0.086800456 0.01317641 0.09033801
0.013373858 -0.07069883 -0.047232114 -0.015274672 -0.058574155 0.11277921 0.09353946 0.091569446
-0.029512055 0.11411772 -0.06506903 -0.026210148 0.0400842 0.070436545 -0.0302978 -0.06505914
-0.012728038 -0.0904511 -0.015614727 -0.036491513 -0.061563093 0.042583507 0.040084388 -0.13970597
-0.12878327 0.034243587 -0.07196275 0.08878585 -0.057561386 0.089592844 -0.051537808 -0.0005907484
-0.03514316 0.061939172 0.055316888 0.107861534 -0.109573826 0.035435814 -0.007907641 -0.15082002
0.03669536 0.07474721 0.05541863 -0.03593018 0.03189284 -0.04904074 -0.05053296 -0.113475785
0.08793139 -0.08073986 0.07405118 0.009833909 -0.015129781 0.08073822 -0.0023175224 -0.0007232863
0.10224116 -0.05494132 0.034848504 -0.022785937 -0.10529055 0.07424836 0.051960543 0.07547401
0.060027946 -0.0043812697 0.08461067 0.08532833 0.108227536 0.03231882 -0.06638025 -0.08826083
-0.0828808 0.10499627 -0.053234607 -0.10861158 0.043998685 -0.08459103 0.062057342 -0.044188704
-0.016687308 -0.010988745 0.03630073 0.10056492 0.09027124 0.007163627 -0.04007761 0.10089968
0.08646637 0.011772384 -0.0025332633 0.0525094 -0.093330175 -0.10159829 -0.016807372 -0.03585069
0.027088545 -0.06999253 0.088701315 -0.0067805354 -0.013224893 -0.0046750056 0.087576985 -0.0074388795
-0.04319839 0.03817964 -0.09889511 0.1068089 0.101606004 0.034649506 0.023314992 -0.042243958
0.10568957 0.0038940492 0.0038058306 -0.05949496 -0.058002535 -0.014593604 0.103324674 -0.03349003
00000000: 1b51 8f3d 0943 26bd 552b 0bbc 2394 c1bd
00000010: f1ec 86bd f0b3 b6bc 5906 ac3d 1239 323d
00000020: 8106 793d 8083 3e3b 4add 4a3d cd4f 3f3d
00000030: 18f8 043d 1df7 70bd 48df 18be 13ff 373d
00000040: 43ed 1cbe e08d cc3b 5caf 093e 629d 143d
00000050: 712d a13d 0c16 9f3a d846 f3bc 8005 f6bd
00000060: cc37 ed3c 0fdc 573c 22bc 013d 2754 8a3c
00000070: 5a69 e23d 0c29 213d 9025 35bd 61e0 02bd
00000080: d3f0 343d 8c00 01be b2ff a13d a539 983d
00000090: 6ddf b4bd 8ea1 a4bd ea87 c43d 45ba 983d
000000a0: d731 6e3d 1683 d93d 460f 0abe 439b fcbc
000000b0: 4105 b03d 329a 37bc a632 133d 81e4 d93d
000000c0: 6d66 313c 68ff 87bd 5303 00be 5424 b43b
000000d0: b01c c3bc 723e 063e 8284 173d b70f 2fbd
000000e0: 9e82 093e a133 3a3d bbef acbc e91e 00be
000000f0: 8f6b 9a3d d03c 903c 3074 03bd 6d44 7c3c
00000100: 732c 653d ef08 6f3d aa0e 1a3c a49e be3d
00000110: 6dc2 80bd 3a44 4dbd f4e8 053e bb24 8d3d
00000120: e14e de3a 80db 1bbe 9e63 76bd ef65 2e3d
00000130: 09e4 a63d ad66 a93d b9d2 85bd 92a2 0e3d
00000140: 9635 cebd 1163 b7ba fa90 c6bd 4fce e6bc
00000150: b7c9 4f3d 808c bb3d 7c06 7f3d 9874 fdbd
00000160: 8831 92bd d158 a2bd 5a6b 5c3d 746d c43c
00000170: ae54 b03d 057e 1abd c51f c2bc ecb6 cb3d
00000180: 7a22 153d a514 843d 29b1 ca3d 56ec 09be
00000190: 3e65 983c 552a d83d c65d 983d 501a e33c
000001a0: 4269 3dbd b00e cbbc dbb2 653d d4b8 f7bd
000001b0: 13ca d03d 6716 e9bd d872 d33d 980c 5d3d
000001c0: 319d f53c 0a35 86bd 033a 6bbc dbb9 94bd
000001d0: 024e f7bd d5b5 e9bd 9b6b 853d 007a fc3d
000001e0: cf7d 37bc d405 8b3d ee1a 953d 9e11 17ba
000001f0: 1afc 9d3d b0bc 3bbd 8da6 a13c f6d6 c93d
00000200: 0425 d63c 1d5b 343b 8bd3 f4bc dc67 9b3d
00000210: 2862 51bd 70c4 b1bd dfe1 573c 2203 b93d
00000220: 071e 5b3c 8cca 90bd 7676 41bd 9e42 7abc
00000230: 74eb 6fbd c9f8 e63d 9e91 bf3d c388 bb3d
00000240: 44c3 f1bc 8db6 e93d e942 85bd aab6 d6bc
00000250: 552f 243d 0941 903d 1833 f8bc ba3d 85bd
00000260: 4389 50bc 6d3e b9bd e9d4 7fbc 2078 15bd
00000270: 9529 7cbd 0b6c 2e3d 872f 243d 150f 0fbe
00000280: c3df 03be 0143 0c3d 3561 93bd 5bd5 b53d
00000290: 7dc5 6bbd 747c b73d 4f19 53bd 74dc 1aba
000002a0: 46f2 0fbd eeb3 7d3d f693 623d 82e6 dc3d
000002b0: 3e68 e0bd 2525 113d 0d8f 01bc 9070 1abe
000002c0: e04d 163d 1115 993d a5fe 623d 862b 13bd
000002d0: 11a2 023d f1de 48bd a6fb 4ebd fe65 e8bd
000002e0: 5f15 b43d f15a a5bd 25a8 973d 671e 213c
000002f0: e7e2 77bc 145a a53d 93e1 17bb ec9a 3dba
00000300: d063 d13d 260a 61bd 4ebd 0e3d 93a9 babc
00000310: 92a2 d7bd 860f 983d 94d4 543d 1e92 9a3d
00000320: dddf 753d c190 8fbb 5c48 ad3d 9fc0 ae3d
00000330: 66a6 dd3d bd60 043d 5ef2 87bd 18c2 b4bd
00000340: 69bd a9bd 4908 d73d 880c 5abd c06f debd
00000350: f737 343d 103e adbd d72f 7e3d 37ff 34bd
00000360: d2b3 88bc 230a 34bc 13b0 143d fbf4 cd3d
00000370: 21e0 b83d dcbc ea3b 6c28 24bd 7ea4 ce3d
00000380: 4815 b13d f5e0 403c 1b05 26bb 1914 573d
00000390: e423 bfbd c412 d0bd 9daf 89bc 2cd8 12bd
000003a0: cce8 dd3c 3e58 8fbd 09a9 b53d 412f debb
000003b0: 39ad 58bc ca30 99bb 905b b33d d8c1 f3bb
000003c0: ccf0 30bd 4162 1c3d 8589 cabd a0be da3d
000003d0: cf16 d03d a4ec 0d3d 15ff be3c 0008 2dbd
000003e0: c673 d83d 4e33 7f3b 3e6b 793b fdb0 73bd
000003f0: 1194 6dbd 031a 6fbc e39b d33d d72c 09bd

net.2.bias f4 [32]
-0.09111531 0.08105411 0.10638183 -0.040482484 0.053729188 -0.10206247 -0.0012789331 -0.05971787
-0.022716213 0.058972526 0.033667453 -0.045353584 0.0026013176 0.10881204 0.010234392 -0.026443005
-0.1514732 0.113062516 0.046249438 -0.03263244 -0.08910938 -0.059962407 0.040131923 -0.084986806
0.13988122 -0.038922414 -0.044871286 0.080278955 -0.026917806 0.06780772 -0.029642442 0.0068280026
00000000: aa9a babd b2ff a53d b8de d93d f6d0 25bd
00000010: 2313 5c3d 2106 d1bd e0a1 a7ba ba9a 74bd
00000020: 5a17 babc 2d8d 713d e2e6 093d aec4 39bd
00000030: de7a 2a3b d9d8 de3d 27ae 273c 009f d8bc
00000040: ca1b 1bbe 528d e73d 0d70 3d3d 98a9 05bd
00000050: fb7e b6bd 249b 75bd 5f61 243d 900d aebd
00000060: 063d 0f3e 1c6d 1fbd f4ca 37bd 4b69 a43d
00000070: bb82 dcbc c6de 8a3d b5d4 f2bc 70bd df3b

net.4.weight f4 [7, 32]
-0.17502303 -0.050040923 0.055528592 -0.022790933 -0.0009747882 -0.1450103 0.06444767 -0.0029559392
0.0735563 0.1683444 0.02337575 0.015512442 -0.1986835 -0.045558497 -0.06451094 0.06266679
-0.19346504 0.0152968485 -0.010328918 -0.12787472 0.04605007 -0.07299348 -0.0040574693 -0.017672699
0.16598253 0.016314602 -0.031100703 0.0022988755 -0.05273879 0.09338386 -0.0017633155 -0.10070786
0.15339504 -0.13119186 0.014298765 0.068717256 -0.034473035 0.006201921 0.18875048 0.053562794
0.16821821 -0.04593109 -0.0023680045 -0.016066037 0.1484105 -0.0956225 0.047878332 0.019716814
0.085254885 0.05887548 0.025465708 0.13515556 0.009281278 0.1313559 0.05404695 0.19678625
-0.02414283 0.09745016 -0.0048926594 -0.01719427 -0.03581632 -0.09909822 0.05232726 -0.0072066337
0.013957103 0.10212219 0.14566296 0.0877122 -0.09567633 0.10945956 -0.050871864 -0.0030799909
-0.0737602 -0.114127465 -0.11832328 0.0050167367 0.1038799 0.023520967 -0.08991125 -0.0074223583
0.15399367 0.07161017 -0.0088625075 -0.13593227 0.09984046 0.10000498 0.02728573 0.042805854
-0.027902998 0.121417865 0.11366788 -0.04426093 0.10660324 -0.1445462 0.11763095 0.0610434
0.045854248 -0.028557453 0.12384146 -0.08600955 -0.07715917 -0.087694936 0.050969876 0.059642125
-0.001621429 -0.107522875 -0.109684855 -0.13195881 -0.13893826 0.06878712 -0.12032203 0.05729837
-0.13436033 -0.048896123 0.05670732 0.16981094 0.12365436 -0.053468116 0.11068495 0.052188616
-0.006931357 0.18029758 0.025170565 -0.040333297 -0.012015122 0.09277168 -0.16759476 0.07226074
-0.15044613 0.023070589 -0.1588089 -0.003525754 0.17868234 -0.15485081 -0.051084727 0.07080367
0.09251377 0.18043084 -0.100983724 -0.0677777 0.08127676 0.006513172 -0.05319972 -0.03820055
0.06709104 -0.05985955 -0.0834772 -0.05334397 -0.053301495 -0.16479559 -0.1620221 -0.18951975
-0.0066821575 -0.059724078 0.058526695 0.04600111 -0.056863166 0.12002742 0.100831546 -0.12327708
0.012625988 -0.03787684 -0.041339587 -0.1305888 0.028178854 -0.12376439 0.043111615 -0.18042068
-0.084844604 -0.053425618 0.14378792 0.062630035 -0.014397245 0.13129954 -0.15227854 -0.06422322
0.112074696 -0.015095826 0.03881381 0.123952165 -0.078448325 -0.17109375 0.10831678 -0.0067297537
0.04850013 -0.02832491 0.04763418 -0.057944283 0.07551444 0.14624107 -0.04541575 -0.0074336315
-0.15177055 0.11270599 -0.13810597 0.02320849 -0.05972229 -0.002242886 -0.11903422 -0.13248448
0.020221176 0.11839033 -0.022655044 -0.17782488 0.006559406 0.15049376 -0.058246125 0.047480114
-0.1742212 0.07096965 0.10280305 -0.022874646 0.10262184 -0.17904569 -0.14637071 -0.17674786
0.024799652 0.014486738 -0.10260704 0.10891781 -0.055392724 -0.14714667 -0.17705616 -0.15888937
00000000: 3d39 33be b6f7 4cbd f371 633d 0db4 babc
00000010: ee88 7fba 957d 14be 24fd 833d 6eb8 41bb
00000020: afa4 963d 7962 2c3e 807e bf3c e627 7e3c
00000030: b073 4bbe 8c9b 3abd 501e 84bd 7257 803d
00000040: b31b 46be a29f 7a3c 9f3a 29bc 97f1 02be
00000050: 009f 3c3d 9b7d 95bd 85f4 84bb 56c6 90bc
00000060: 53f7 293e 33a6 853c e7c6 febc bba8 163b
00000070: a104 58bd 0a40 bf3d 0d1f e7ba ec3f cebd
00000080: 9713 1d3e 2957 06be 5e45 6a3c a2bb 8c3d
00000090: 9933 0dbd 7c39 cb3b ce47 413e a964 5b3d
000000a0: 6541 2c3e 3d22 3cbd 8630 1bbb ec9c 83bc
000000b0: ecf8 173e bbd5 c3bd 121c 443d 2885 a13c
000000c0: 1d9a ae3d 6a27 713d 769d d03c 3866 0a3e
000000d0: 8010 183c 2982 063e 5660 5d3d 5682 493e
000000e0: 2fc7 c5bc f393 c73d 9a52 a0bb ffda 8cbc
000000f0: 22b4 12bd 02f4 cabd 1c55 563d a025 ecbb
00000100: 55ac 643c 7025 d13d ac28 153e 74a2 b33d
00000110: f4f1 c3bd 552c e03d 045f 50bd acd9 49bb
00000120: 960f 97bd a9bb e9bd 7a53 f2bd 7063 a43b
00000130: fcbe d43d 0baf c03c 6423 b8bd 4137 f3bb
00000140: 84b0 1d3e 5aa8 923d 0d34 11bc d431 0bbe
00000150: 2879 cc3d 69cf cc3d 5386 df3c 3155 2f3d
00000160: d494 e4bc eea9 f83d b5ca e83d f34a 35bd
00000170: cd52 da3d eb03 14be 7fe8 f03d a508 7a3d
00000180: aad1 3b3d 52f1 e9bc 97a0 fd3d c625 b0bd
00000190: a005 9ebd 6799 b3bd cac5 503d 4d4b 743d
000001a0: 2186 d4ba f434 dcbd 74a2 e0bd 3620 07be
000001b0: d545 0ebe 43e0 8c3d 656b f6bd b2b1 6a3d
000001c0: c195 09be 4d47 48bd ef45 683d ebe2 2d3e
000001d0: 7f3e fd3d 6201 5bbd cbae e23d bbc3 553d
000001e0: 7020 e3bb ee9f 383e 8032 ce3c 8734 25bd
000001f0: 13db 44bc 14ff bd3d f69d 2bbe 70fd 933d
00000200: 8d0e 1abe 88fe bc3c cd9e 22be 5610 67bb
00000210: 81f8 363e 3691 1ebe 383e 51bd 8401 913d
00000220: dc77 bd3d ddc2 383e 8ed0 cebd 09cf 8abd
00000230: 6e74 a63d 726c d53b f3e7 59bd 2e78 1cbd
00000240: 0767 893d 4a2f 75bd 18f6 aabd 357f 5abd
00000250: ab52 5abd 2dc0 28be 1fe9 25be 7711 42be
00000260: 00f6 dabb 3ca1 74bd b0b9 6f3d a96b 3c3d
00000270: 5ae9 68bd f0d0 f53d c580 ce3d b278 fcbd
00000280: 3bdd 4e3c bf24 1bbd b353 29bd 12b9 05be
00000290: 57d7 e63c 2f78 fdbd ce95 303d 33c0 38be
000002a0: 02c3 adbd d2d4 5abd 243d 133e 2d44 803d
000002b0: 6ce2 6bbc 6373 063e e8ee 1bbe 7787 83bd
000002c0: 6b87 e53d 7c54 77bc 3bfb 1e3d a2da fd3d
000002d0: 84a9 a0bd 3333 2fbe 30d5 dd3d 4485 dcbb
000002e0: 13a8 463d a409 e8bc 0f1c 433d fc56 6dbd
000002f0: 51a7 9a3d 38c0 153e de05 3abd d295 f3bb
00000300: bd69 1bbe 66d2 e63d a76b 0dbe bb1f be3c
00000310: 5c9f 74bd 62fd 12bb 37c8 f3bd 03aa 07be
00000320: e1a6 a53c a176 f23d 1297 b9bc ba17 36be
00000330: 49f0 d63b 091b 1a3e 7d93 6ebd 827a 423d
00000340: 0b67 32be 8958 913d 688a d23d 9c63 bbbc
00000350: 662b d23d c157 37be 34e2 15be 64fd 34be
00000360: a428 cb3c c859 6d3c a423 d2bd 4d10 df3d
00000370: 7be3 62bd 9ead 16be 364e 35be e5b3 22be

net.4.bias f4 [7]
-0.054638315 0.12571986 0.09171741 -0.004264408 0.077327386 0.046284087 0.08056493
00000000: 6dcc 5fbd b5bc 003e 56d6 bb3d 72bc 8bbb
00000010: d25d 9e3d 6294 3d3d 3aff a43d
